Harmon_Final_model.pt (torch, 5067 bytes, 9 tensors)

lin.weight f4 [16, 4]
0	0xbe3e8d51	-0.18608595
1	0xbeae95e0	-0.3409872
2	0x3f01793f	0.5057563
3	0x3eb7d4d9	0.35904577
4	0xbeadde2b	-0.33958563
5	0xbe06ca7d	-0.1316318
6	0xbeaf772b	-0.34270605
7	0x3d416e9d	0.04722463
8	0x3de51197	0.111849956
9	0xbece9c45	-0.403536
10	0xbef2ba36	-0.47407693
11	0xbe97205c	-0.29516876
12	0x3eda739a	0.42666322
13	0xbeb053b1	-0.3443885
14	0x3b2a563c	0.002599134
15	0x3e8786ff	0.2647018
16	0xbe3ab761	-0.18234016
17	0x3e8d443b	0.27591118
18	0x3ee5be9b	0.44871983
19	0xbc9b2004	-0.018936165
20	0x3e8784d3	0.26468524
21	0x3e099f80	0.1343975
22	0xbe5daf27	-0.21648847
23	0xbe55a4e0	-0.20863676
24	0x3e9ab991	0.302197
25	0x3ec61662	0.38688952
26	0x3eebbc22	0.4604197
27	0xbe17466f	-0.14772962
28	0xbebfb323	-0.37441358
29	0xbddf6085	-0.109070815
30	0x3ebc7f66	0.36815947
31	0x3e950ccb	0.29111323
32	0x3ec19c99	0.37814787
33	0x3e321884	0.17392164
34	0xbd42418a	-0.047425784
35	0xbe3db90d	-0.18527623
36	0x3e700829	0.23440613
37	0x3ef9c8c6	0.4878599
38	0xbe416ba6	-0.18888721
39	0x3ece4829	0.4028943
40	0xbd778d3c	-0.060437426
41	0xbee70abd	-0.4512538
42	0x3e7d1ecd	0.24718781
43	0x3e3764b9	0.17909516
44	0x3d911b2d	0.070852615
45	0xbeb4d946	-0.35322016
46	0xbe89f248	-0.26942658
47	0xbe1a69f1	-0.15079476
48	0x3dd0c05b	0.10192939
49	0xbe0f4d74	-0.1399439
50	0x3e56346b	0.20918433
51	0xbe071183	-0.13190274
52	0xbefa63a3	-0.48904142
53	0x3ebae69e	0.36504072
54	0x3dc95ab6	0.09831755
55	0x3e95f70b	0.2929004
56	0xbec7d314	-0.39028227
57	0x3e2b3160	0.16718054
58	0xbee57f75	-0.44823804
59	0xbeafa8ee	-0.3430857
60	0xbebb67ae	-0.3660254
61	0xbf0e3632	-0.55551445
62	0xbf05244b	-0.52008504
63	0xbec6f50b	-0.38858828

lin.bias f4 [16]
0	0x3ea7765c	0.3270749
1	0xbef6faae	-0.48238128
2	0x3eaf4b3f	0.34237096
3	0x3f0f28d5	0.5592168
4	0xbcd7fe8e	-0.026366498
5	0x3ebbfff3	0.3671871
6	0x3eed4490	0.46341372
7	0xbedb32c6	-0.42812175
8	0xbe93896c	-0.28815782
9	0x3e1927f3	0.14956646
10	0x3f0a454b	0.5401198
11	0xbe8f43f2	-0.27981526
12	0x3e8305b5	0.25590292
13	0xbe2688fd	-0.16263194
14	0xbe5a1f67	-0.21301042
15	0xbe68e4ea	-0.22743574

l1.weight f4 [13, 16]
0	0x3e942714	0.28936064
1	0x3da8b530	0.08237684
2	0xbe4c8e78	-0.19976223
3	0x3de182be	0.11011265
4	0x3e1f4f82	0.15557674
5	0x3e474cc1	0.19462873
6	0x3ac4cd4a	0.0015014794
7	0xbe55ab2c	-0.20866078
8	0xbd2d3419	-0.042286012
9	0x3db5b36c	0.08872113
10	0xbe1d597c	-0.15366167
11	0xbe087516	-0.13325915
12	0xbd2bffbd	-0.041991938
13	0xbd75e594	-0.060033396
14	0xbd2abc59	-0.04168353
15	0xbea45f91	-0.3210416
16	0x3e4dfb25	0.20115335
17	0xbe33ab69	-0.17545857
18	0xbe3cb8a2	-0.18429807
19	0x3e56dbed	0.20982333
20	0x3e941008	0.2891848
21	0x3b80cb2f	0.0039304714
22	0xbe449da5	-0.19200762
23	0xbcab055f	-0.020876585
24	0xbe474f4a	-0.1946384
25	0xbe4ded01	-0.20109941
26	0x3e787eee	0.2426717
27	0x3e1ba844	0.15200907
28	0x3e8cde19	0.27513197
29	0xbd22b970	-0.03972763
30	0xbd9dc184	-0.07702926
31	0x3d094120	0.033509374
32	0xbdda725f	-0.10666346
33	0x3e68ee3b	0.22747128
34	0xbcee7675	-0.02910922
35	0xbe822cb2	-0.25424725
36	0xbde9c515	-0.114145435
37	0x3d2d81d4	0.042360142
38	0xbe646041	-0.22302343
39	0x3e0dd3a4	0.13850266
40	0x3e7c7660	0.24654531
41	0xbe44b657	-0.19210182
42	0xbe630d05	-0.22172935
43	0xbe05cfca	-0.13067546
44	0xbe344b03	-0.1760674
45	0xbe2ed7cb	-0.17074506
46	0x3da89f4e	0.0823351
47	0x3d687453	0.05675156
48	0x3e4b40b6	0.19848904
49	0xbe257fc9	-0.16162027
50	0x3c13e64d	0.009027076
51	0x3ea8aa7e	0.32942575
52	0xbdc6cfdf	-0.09707617
53	0x3ddccb06	0.10780911
54	0xbcc74504	-0.024324901
55	0xbe0c0a82	-0.13675883
56	0x3e29500b	0.1653444
57	0x3dad6b5d	0.084677435
58	0x3e900853	0.2813135
59	0xbe9ff54d	-0.31241837
60	0x3d977dc1	0.073970325
61	0xbdad7ebe	-0.0847144
62	0x3e4bb1ca	0.1989204
63	0xbe902c96	-0.28159016
64	0xbe0f8204	-0.14014441
65	0x3e2d3aff	0.16917036
66	0x3dbfa4b2	0.09357585
67	0x3dee4509	0.11634261
68	0xbdfebc44	-0.124382526
69	0xbdacabed	-0.0843123
70	0xbcb38e4c	-0.021918438
71	0x3e090618	0.13381231
72	0x3e43a4fe	0.19105908
73	0x3db60730	0.0888809
74	0xbe07d7c5	-0.13265903
75	0x3e54eda1	0.20793773
76	0xbdea5c87	-0.114434294
77	0x3bd0e57d	0.0063750134
78	0xbe366e87	-0.178156
79	0x3deb74a2	0.11496855
80	0x3e413186	0.18866548
81	0xbe15f45a	-0.14643994
82	0xbdd2fc30	-0.10302007
83	0x3df4d4f4	0.1195468
84	0x3c494fd6	0.012287101
85	0x3e7e2be5	0.24821432
86	0x3d9b3270	0.075779796
87	0xbdb38480	-0.08765507
88	0x3dfbb206	0.12289815
89	0x3e516a6e	0.20450756
90	0x3e9c2eca	0.30504447
91	0xbd6886cf	-0.05676919
92	0xbce8f891	-0.028438838
93	0xbe0b906e	-0.13629314
94	0x3e45b54e	0.19307443
95	0xbe32a9af	-0.17447542
96	0x3d1db145	0.038499136
97	0x3e8c78ac	0.27435815
98	0x3e48ed08	0.1962167
99	0x3dbf72e2	0.09348084
100	0xbc5d38b7	-0.013502291
101	0xbe19e419	-0.15028419
102	0xbddf78a4	-0.10911682
103	0x3e9665d8	0.29374576
104	0xbda115b8	-0.07865471
105	0x3e3193dc	0.1734156
106	0xbd751951	-0.059838597
107	0x3dc91f2d	0.098203994
108	0xbe9df00b	-0.308472
109	0xbd4b28ed	-0.049599577
110	0x3de7c9d6	0.11317794
111	0x3c029cd5	0.007971962
112	0xbd7e5e37	-0.06210157
113	0xbc608f64	-0.013706062
114	0x3db2fe16	0.08739869
115	0x3e921a4f	0.28535697
116	0x3e31c62d	0.17360754
117	0x3e83d698	0.2574966
118	0x3e74e3fc	0.23915094
119	0xbe94b32b	-0.29042944
120	0x3cb2925b	0.021798303
121	0x3e8618e1	0.26190856
122	0x3db969f6	0.090534136
123	0xbbb8c2b2	-0.005638444
124	0xbe022f90	-0.12713456
125	0xbc404ab9	-0.011736565
126	0x3da9b26b	0.08285984
127	0x3d48bd72	0.049008794
128	0xbea18f43	-0.31554613
129	0xbe50aa23	-0.20377402
130	0x3cef2a69	0.029195027
131	0xbe32eb46	-0.17472562
132	0xbe8a0ba6	-0.26962012
133	0x3dd3dc2b	0.10344728
134	0xbdc108ab	-0.094254814
135	0x3cf724cd	0.030168915
136	0xbc942bfd	-0.018087381
137	0xbd0c2208	-0.034212142
138	0xbe1f52ca	-0.15558925
139	0x3e135275	0.14386924
140	0xbe4a2ece	-0.19744417
141	0x3cc26df9	0.02373408
142	0xbd8d5d73	-0.0690259
143	0xbe197182	-0.14984706
144	0x3e658264	0.22413021
145	0xbe5256ac	-0.20540875
146	0xbe4ff429	-0.20307983
147	0x3d0bf61c	0.034170255
148	0x3e906e30	0.28209066
149	0xbdc3712e	-0.09543072
150	0x3d7a2de3	0.061078917
151	0xbe3907ab	-0.18069331
152	0xbe5301e5	-0.20606191
153	0x3e8bd2fe	0.27309412
154	0x3ea0d9b7	0.31416103
155	0xbdd8b63e	-0.10581635
156	0xbdcdaffa	-0.100433305
157	0x3d997a8d	0.07494078
158	0xbdf07bec	-0.11742386
159	0x3e383bc4	0.17991549
160	0xbea68859	-0.325259
161	0xbe2eba84	-0.17063338
162	0x3d836fcc	0.06417808
163	0xbe1b32a7	-0.15156041
164	0x3dd94fa5	0.10610894
165	0xbbbff423	-0.005857961
166	0x3def8e12	0.1169702
167	0x3e3ee178	0.18640697
168	0x3ea30f29	0.31847504
169	0xbe07be34	-0.1325615
170	0xbe011a3c	-0.12607664
171	0xbdbde441	-0.092720516
172	0x3e365d05	0.17808922
173	0x3db3fb7a	0.087882
174	0x3e0569f3	0.13028698
175	0x3e463993	0.193579
176	0xbe97383b	-0.29535088
177	0x3df9c057	0.12194889
178	0x3e25239a	0.16126862
179	0xbe863f11	-0.2621999
180	0x3dccec3c	0.10005996
181	0xbe6415c6	-0.22273931
182	0x3d964ff4	0.073394686
183	0x3e2038db	0.15646689
184	0x3e2876bf	0.16451548
185	0xbde24c97	-0.110497646
186	0xbe8d25bc	-0.27567852
187	0x3d80da59	0.062916465
188	0xbce865ba	-0.02836882
189	0xbdf7d516	-0.1210119
190	0xbe39f122	-0.18158391
191	0x3de2955a	0.11063643
192	0xbcdf2ad6	-0.027242105
193	0xbe22c7de	-0.15896556
194	0x3e651dda	0.22374669
195	0xbe451ab1	-0.19248463
196	0x3d26cfa8	0.04072538
197	0xbe842fb1	-0.25817636
198	0xbdca3fab	-0.09875425
199	0xbe08a16e	-0.1334283
200	0xbdca025b	-0.098637305
201	0xbd8da312	-0.06915869
202	0x3dbfb517	0.09360712
203	0x3e807f61	0.25097182
204	0xbe806579	-0.25077417
205	0x3dc4c79f	0.09608387
206	0x3e8c44f0	0.27396345
207	0x3d040f30	0.032241046

l1.bias f4 [13]
0	0xbd94d1e6	-0.072665974
1	0x3e9db8c7	0.30805036
2	0x3de79db0	0.113093734
3	0x3e85ea45	0.26155296
4	0xbcc6de3b	-0.02427589
5	0xbdb45673	-0.088055514
6	0xbe1722e5	-0.14759405
7	0xbd96cc5e	-0.07363199
8	0xbea699c0	-0.32539177
9	0x3e24b6a4	0.16085297
10	0xbdf994b9	-0.1218657
11	0x3d175ee4	0.03695573
12	0x3cfef540	0.031122804

l2.weight f4 [9, 13]
0	0xbc1133b4	-0.008862425
1	0x3c04b0f5	0.0080988305
2	0x3d74e679	0.05979011
3	0x3ddd2307	0.107976966
4	0xbc55b26f	-0.01304303
5	0x3b8e076d	0.0043343813
6	0x3e7b602e	0.24548408
7	0xbe02920b	-0.12751023
8	0x3e19d503	0.15022664
9	0xbe49112d	-0.19635458
10	0xbd888e31	-0.06667746
11	0x3d985f72	0.0744008
12	0x3e589f85	0.21154602
13	0x3da9963a	0.082806066
14	0x3e2e73f2	0.17036417
15	0x3e089c9e	0.13340995
16	0x3e9b983b	0.3038958
17	0xbe88a7bb	-0.26690468
18	0x3e3b5bd9	0.18296756
19	0xbe8b0daf	-0.27158877
20	0x3e4e37b7	0.20138441
21	0xbe871b7f	-0.26388165
22	0x3c91687c	0.017750017
23	0xbdfc4349	-0.12317521
24	0x3e05d515	0.13069566
25	0x3dace63e	0.08442353
26	0x3e6615bc	0.22469229
27	0xbd74c726	-0.059760235
28	0x3ea46b59	0.3211315
29	0xbea031a1	-0.31287864
30	0x3e8656fc	0.2623824
31	0xbb9e2c21	-0.004827038
32	0x3e40e1ab	0.18836085
33	0xbe224223	-0.15845542
34	0x3d84f52e	0.06492077
35	0x3cb9a785	0.022662887
36	0x3e2c8a8e	0.1684973
37	0x3e3c35b9	0.18379869
38	0x3e455f89	0.19274725
39	0x3dcea8d4	0.10090795
40	0xbe52c580	-0.20583153
41	0x3e064040	0.13110447
42	0xbc24d24d	-0.010059905
43	0xbcff174e	-0.031139042
44	0xbe35b96b	-0.17746513
45	0x3e38117d	0.17975421
46	0xbe8bb688	-0.27287698
47	0x3e708030	0.234864
48	0x3e0dcc78	0.1384753
49	0xbe657921	-0.22409488
50	0xbe44e10b	-0.19226472
51	0xbc8ed59b	-0.01743584
52	0x3e01e1bb	0.12683766
53	0x3e81402f	0.2524428
54	0xbea73474	-0.32657206
55	0x3e509e35	0.20372851
56	0xbd2300f9	-0.03979585
57	0x3d06cd99	0.032910917
58	0xbd06db74	-0.03292413
59	0xbe610419	-0.2197422
60	0x3e3ffd70	0.18749022
61	0x3eabc5ff	0.33549497
62	0xbea6c94b	-0.3257545
63	0x3d1d2bae	0.038371734
64	0xbe09c578	-0.13454235
65	0x3e898b54	0.2686411
66	0x3e728620	0.23683977
67	0x3d8338e0	0.064073324
68	0x3dd6b2e5	0.1048334
69	0xbe9641ca	-0.29347068
70	0x3dc233f3	0.09482565
71	0x3e0033ca	0.12519756
72	0xbe25af37	-0.1618012
73	0xbea8c0e2	-0.32959658
74	0x3beb8f34	0.007188702
75	0xbe9c7e12	-0.30564934
76	0xbea7921a	-0.32728654
77	0x3bdd0012	0.006744393
78	0x3da792bb	0.081822835
79	0xbe366e0e	-0.1781542
80	0xbe25b559	-0.1618246
81	0xbda93420	-0.08261895
82	0xbdb469cb	-0.08809241
83	0x3e13e07f	0.14441107
84	0xbd7d6c9a	-0.06187115
85	0x3ca13e45	0.019683013
86	0x3d9b12e6	0.07571964
87	0xbd6f45dc	-0.058416232
88	0x3e133e0f	0.14379142
89	0x3e3613be	0.17780969
90	0x3da4ca38	0.08046383
91	0xbd9eedba	-0.077601865
92	0xbd516570	-0.05112213
93	0xbe80521c	-0.25062644
94	0xbde53807	-0.11192327
95	0x3e38693b	0.18008892
96	0x3d52c076	0.051453076
97	0x3c78759c	0.015164759
98	0xbe2a54ae	-0.16633865
99	0x3d301efe	0.042998306
100	0x3e1a052d	0.15041037
101	0x3e1b0d5e	0.15141818
102	0xbe19684f	-0.14981197
103	0x3d85f115	0.065401234
104	0xbe375ff9	-0.17907704
105	0x3e9e9ad8	0.3097751
106	0xbe2bc29e	-0.1677346
107	0x3e9914c9	0.2989867
108	0x3e37e755	0.1795934
109	0x3e20f6c0	0.15719128
110	0xbe10b63c	-0.14132017
111	0xbe1bef91	-0.15228106
112	0x3e310568	0.17287219
113	0x3e7f30fc	0.2492103
114	0x3dfa1646	0.122112796
115	0x3e488141	0.19580556
116	0x3e7c0dd0	0.24614644

l2.bias f4 [9]
0	0xbe7a9b97	-0.24473415
1	0xbddca489	-0.1077357
2	0xbeaaeedc	-0.3338536
3	0xbe4b5497	-0.19856487
4	0x3e8eed60	0.27915478
5	0xbda624bd	-0.08112476
6	0xbe4910cb	-0.19635312
7	0x3da65b56	0.0812289
8	0xbe26e396	-0.16297755

l3.weight f4 [4, 9]
0	0x3c32947a	0.010899657
1	0xbea8b367	-0.32949373
2	0x3dc34a81	0.09535695
3	0xbd44b561	-0.04802454
4	0xbeacae3a	-0.33726674
5	0xbe9f4d88	-0.3111384
6	0x3d290468	0.041263968
7	0x3dd22648	0.10261208
8	0xbe4a8ea9	-0.19780983
9	0x3ea36185	0.3191034
10	0xbe549b59	-0.20762385
11	0x3ec92f08	0.39293694
12	0x3eab5ebf	0.33470723
13	0xbe0263a8	-0.12733328
14	0x3d192226	0.037386082
15	0x3e5b25a4	0.21401078
16	0xbd958b6b	-0.073019825
17	0x3d32c2f9	0.04364297
18	0xbea13040	-0.31482124
19	0x3bb28b7d	0.005448757
20	0xbebf4ec1	-0.37364772
21	0x3d043995	0.032281477
22	0xbe8a4b9d	-0.27010813
23	0x3e76f8fb	0.24118416
24	0x3e0b6405	0.13612373
25	0x3e93890d	0.288155
26	0x3e1ec755	0.15505727
27	0x3a0d360c	0.0005386777
28	0xbeb5cc60	-0.35507488
29	0xbe37ec1f	-0.17961167
30	0xbdc2c64f	-0.095104806
31	0x3e9475e7	0.28996202
32	0x3e1c7fa9	0.15283073
33	0x3d79843a	0.060917117
34	0xbe4bda92	-0.19907597
35	0xbdc9d9af	-0.09855973

l3.bias f4 [4]
0	0xbe18b763	-0.14913706
1	0xbed43057	-0.4144313
2	0x3e259272	0.16169146
3	0x3d2a3b2f	0.041560348

lout.weight f4 [1, 4]
0	0xbeea40f1	-0.4575267
1	0xbedbd7fb	-0.42938218
2	0x3e5c6ec3	0.21526627
3	0xbe64d6be	-0.22347543
